models/checkpoint.pt (torch, 93791 bytes, 4 tensors)

conv1.bias f4 [16]
0.12841898 0.12677059 0.19920076 0.3718886 0.085323766 0.10250662 0.21942261 0.37253574
0.115968995 0.34026507 0.27872193 0.22983675 0.30182067 0.16117918 0.3591418 0.17823766
00000000: 4480 033e 26d0 013e 49fb 4b3e 2f68 be3e
00000010: 3abe ae3d feee d13d 52b0 603e 01bd be3e
00000020: 2781 ed3d 3937 ae3e a4b4 8e3e 535a 6b3e
00000030: 3d88 9a3e 280c 253e 6fe1 b73e ef83 363e

conv1.lin.weight f4 [16, 1433]
-0.03514085 0.15914707 0.05703067 0.06657282 0.3962218 -0.0010558927 0.01777965 0.006570154
0.14398304 0.0066984952 0.00015259732 0.0038138852 0.14801976 0.016139636 0.09759262 -0.10748727
-0.0023718635 -0.032260317 -0.061846778 -0.13419299 2.8052148e-38 -0.000146843 0.0013178805 0.018746067
-0.002081417 -0.07245851 0.009624374 -0.0030374744 0.114585854 -0.0034098078 -0.03187236 0.057076495
0.0005325238 -1.0533255e-24 -0.051296003 0.032971825 0.00062573166 0.002212406 0.12852962 -0.13334881
0.088062234 0.047397066 0.0060649267 6.584457e-05 -0.047725525 -0.029121784 -0.00065919757 0.03366954
-0.007355168 0.0021291042 -0.003261529 -0.15763019 -0.09719903 0.004028222 0.15119767 0.03622785
0.0076838317 0.035926368 -0.062204294 -0.060367454 -0.0010649322 0.28972608 0.024175009 0.034586217
0.051835608 -0.04513233 0.010862354 0.06690886 -0.00046459516 -0.00045169843 -0.076127104 0.0050956346
-0.0028194312 -0.00065462815 -0.0068599745 -0.027911948 -0.028620966 -0.05476229 0.22126813 -0.019395115
-0.034525275 -0.08395611 0.162086 0.010503177 -0.0022330445 -0.049155623 0.01073473 -0.03761554
-0.13378257 0.07028929 -0.034758165 0.1141687 0.099223524 0.16376455 -0.012329209 -0.003625059
0.06617128 0.00091694883 -0.11057979 0.311146 0.035284154 -0.0006748688 -0.13050692 -0.0028263077
-0.13587058 0.09522664 -0.0035540354 0.0075513045 -0.03137364 0.001952319 -0.0033791638 0.004686863
0.0042775082 -2.3506173e-16 0.015872253 0.0019701445 1.8340977e-05 -0.0062112785 0.16300099 -0.07039218
-0.017288748 0.00024939512 -0.10177944 -0.04198434 -0.009651195 -0.12220795 0.026963051 -0.00010520209
0.10980035 -0.03413385 0.093965106 -7.35215e-05 -0.1409296 -0.02450781 0.010622598 -0.22711416
-0.10051678 0.030969173 0.0010441955 -0.027548902 0.2102282 -0.018029407 0.04333118 -0.04221962
0.0016016536 3.658086e-20 -0.020914044 0.00372049 0.02031797 0.11085989 -0.052098826 -0.03446334
0.027627343 0.0058453823 0.019011077 -0.12125689 -0.00596181 0.08178493 0.05255966 0.080926545
-0.0420578 -0.018147778 -0.020711027 0.0023563765 0.001651826 0.0038058436 0.039776273 0.035001393
0.22254811 -0.014657086 0.017279731 -7.0334e-41 -0.006088815 -0.021305364 0.037486922 0.024175907
-0.117876 -0.015260544 -0.016990716 -0.03519697 0.0045585176 0.040172152 0.014262656 -0.0076443176
0.036096074 0.0021529687 0.06676964 0.36776844 0.025104411 0.0044361386 0.10468037 -0.020049253
0.02028425 0.07080703 -0.004970742 0.024452046 0.17286745 -0.015742067 0.007742982 0.0073909783
-0.00014626332 -0.0033313052 -0.011045383 -0.038741063 0.0012576293 -0.05930297 -0.000550282 -0.020231387
0.063488364 -0.0044260165 0.008150138 -0.11375795 0.020483008 0.0108053 -0.028591402 -0.013670867
0.0017211854 -0.061146207 -0.0065397443 -0.0024063417 -0.03210476 -0.011500573 0.010466893 -0.0013560436
-0.011929669 0.17705157 -0.096723996 0.0033859373 -0.06616079 0.0039238497 -0.025081635 0.04545998
-0.107480265 0.043340992 0.1372451 -0.019140702 0.00039158895 -0.08675688 -0.15571253 0.002872955
-0.10423735 -2.5531945e-21 0.0034862948 -0.07634662 -0.09541285 -0.09981672 -0.0001815004 0.09995716
0.024917848 -0.088226736 0.04960408 0.0099517265 -0.007486992 -0.018371643 0.04762383 -0.012419543
00000000: daef 0fbd 73f7 223e fe98 693d 5557 883d
00000010: 95dd ca3e e165 8aba a1a6 913c 724a d73b
00000020: 4a70 133e 0d7f db3b 8802 2039 60f2 793b
00000030: 7e92 173e 4537 843c a4de c73d 4922 dcbd
00000040: 4471 1bbb 6523 04bd 0c53 7dbd e369 09be
00000050: fdba 1801 def9 19b9 bbbc ac3a 5a91 993c
00000060: 6268 08bb 2165 94bd 8daf 1d3c 5d10 47bb
00000070: fdab ea3d 1577 5fbb 978c 02bd 0bc9 693d
00000080: 1199 0b3a 86fe a297 c21b 52bd 770d 073d
00000090: 2408 243a 03fe 103b 459d 033e 978c 08be
000000a0: f959 b43d 6d23 423d 4bbc c63b 0916 8a38
000000b0: d77b 43bd cf90 eebc 00ce 2cba 12e9 093d
000000c0: 9f03 f1bb 7188 0b3b 60bf 55bb cf69 21be
000000d0: 4910 c7bd 2dff 833b 90d3 1a3e a763 143d
000000e0: a7c8 fb3b 8727 133d eec9 7ebd dd43 77bd
000000f0: 3295 8bba fa56 943e ab0a c63c 47aa 0d3d
00000100: 9351 543d aedc 38bd 04f8 313c 8307 893d
00000110: e894 f3b9 f0d1 ecb9 87e8 9bbd 48f9 a63b
00000120: 35c6 38bb 5a9b 2bba a3c9 e0bb 99a7 e4bc
00000130: 8476 eabc 6c4e 60bd 1d94 623e 81e2 9ebc
00000140: 606a 0dbd 2ef1 abbd dff9 253e 8415 2c3c
00000150: 4558 12bb 6857 49bd b9e0 2f3c c112 1abd
00000160: 4cfe 08be d5f3 8f3d 945e 0ebd 48d1 e93d
00000170: b435 cb3d e5b1 273e 7300 4abc 6692 6dbb
00000180: cf84 873d 655f 703a a877 e2bd 874e 9f3e
00000190: 1e86 103d aee9 30ba 9ba3 05be 9339 39bb
000001a0: a821 0bbe 2f06 c33d d2ea 68bb ef70 f73b
000001b0: a581 00bd f5e4 ff3a f674 5dbb 4294 993b
000001c0: 572a 8c3b fd80 87a5 8706 823c 8a1d 013b
000001d0: f3da 9937 fb87 cbbb bbe9 263e c629 90bd
000001e0: 22a1 8dbc 3fc1 8239 bd71 d0bd c5f7 2bbd
000001f0: 0c20 1ebc 2948 fabd 9ee1 dc3c f19f dcb8
00000200: 02df e03d f0cf 0bbd c770 c03d 8e2f 9ab8
00000210: d94f 10be 9ac4 c8bc 680a 2e3c 9d90 68be
00000220: bedb cdbd 10b3 fd3c 63dd 883a 3cae e1bc
00000230: 1046 573e 68b2 93bc 097c 313d 7bee 2cbd
00000240: 94ee d13a 8cbf 2c1f ee53 abbc 77d3 733b
00000250: df71 a63c 830a e33d 9465 55bd 6e29 0dbd
00000260: bd52 e23c 9f8a bf3b 1ebd 9b3c 8855 f8bd
00000270: 495b c3bb db7e a73d cc48 573d d1bc a53d
00000280: cd44 2cbd a6aa 94bc 2caa a9bc 706d 1a3b
00000290: 1582 d83a 766b 793b 72ec 223d 9f5d 0f3d
000002a0: a7e3 633e 4624 70bc 398e 8d3c 10c4 0080
000002b0: af84 c7bb 9688 aebc e38b 193d 8d0c c63c
000002c0: f968 f1bd 5c07 7abc 1d30 8bbc b32a 10bd
000002d0: 9e5f 953b 8e8b 243d eaad 693c 2f7d fabb
000002e0: 7ad9 133d d218 0d3b 85be 883d 254c bc3e
000002f0: c4a7 cd3c 075d 913b a962 d63d 553e a4bc
00000300: 282b a63c 4703 913d 9be1 a2bb a84f c83c
00000310: 2a04 313e 82f5 80bc d7b8 fd3b 0530 f23b
00000320: 435e 19b9 0752 5abb b2f7 34bc f3ae 1ebd
00000330: 09d7 a43a ace7 72bd cd40 10ba 4bbc a5bc
00000340: 3006 823d 1e08 91bb 2888 053c eef9 e8bd
00000350: fbcb a73c b708 313c 8438 eabc c6fb 5fbc
00000360: 6699 e13a 7274 7abd 5a4b d6bb b7b3 1dbb
00000370: 4880 03bd e66c 3cbc 557d 2b3c 46bd b1ba
00000380: a974 43bc 024d 353e 3b17 c6bd 9ae6 5d3b
00000390: 4f7f 87bd a393 803b 0078 cdbc 3e34 3a3d
000003a0: 9d1e dcbd 5386 313d fb89 0c3e f6cc 9cbc
000003b0: 2e4e cd39 97ad b1bd 1b73 1fbe 3048 3c3b
000003c0: 647a d5bd f7e9 409d 527a 643b 9e5b 9cbd
000003d0: d067 c3bd b56c ccbd 2551 3eb9 57b6 cc3d
000003e0: 8420 cc3c 38b0 b4bd a62d 4b3d 910c 233c
000003f0: 7155 f5bb 2180 96bc 3511 433d 577b 4bbc

conv2.bias f4 [7]
-0.25704387 0.5097568 0.6512279 0.4691781 0.08922355 -1.7577275 0.3285082
00000000: 419b 83be 6c7f 023f dfb6 263f 1d38 f03e
00000010: d6ba b63d 37fd e0bf 3a32 a83e

conv2.lin.weight f4 [7, 16]
-0.92542547 -0.61010545 -0.7362556 1.1226301 0.9248021 0.8840111 1.0259289 0.9369492
-0.93355894 -1.05363 -1.0746015 -0.49274513 0.66982806 0.7627215 0.8537467 -1.0468436
0.7891123 1.2465504 0.9762465 -0.9207754 -1.0940684 -0.7720072 -1.1441882 -0.8398892
-0.67996925 -0.99931324 -1.1351588 0.7465792 0.7963335 1.0307693 1.0743111 -0.642613
1.1082014 -0.5020431 -0.7977933 -0.3819157 -0.7513037 -0.8280621 -0.79946756 1.1165351
-0.7764684 1.0095763 0.52978176 -0.6078435 0.6013367 -0.88992196 -0.6127347 -0.87202823
-0.7157729 -0.5249202 0.8729485 1.1662209 1.015714 -0.70108837 -0.7464572 -0.6340063
-0.78595847 0.123545356 0.70732343 1.2687553 -1.0663369 -0.7272278 -0.8021374 -0.6289016
-0.73111105 1.3167163 -1.0087484 0.83062345 -0.86217225 -0.721141 0.8989199 -0.71222776
0.79346657 0.71323955 0.5493508 -0.96159345 -0.9700896 -0.7307209 0.8608287 0.84622043
0.8001176 -0.74221605 0.9528657 -1.3208448 0.8298386 0.82605004 0.7800459 -1.3068331
0.91604906 0.8487558 0.832018 -1.0495994 0.65041614 0.9003682 -1.0006511 1.1008145
-0.5492729 -0.31911895 -0.47787535 -0.55332476 -0.63550794 1.122091 -0.6416887 1.1247381
1.0386713 -0.75608003 -0.946188 1.0404887 -0.7698397 -0.6706002 -0.65013456 0.8123444
00000000: afe8 6cbf df2f 1cbf 3f7b 3cbf 58b2 8f3f
00000010: d5bf 6c3f 8d4e 623f a351 833f e7db 6f3f
00000020: b8fd 6ebf 59dd 86bf 8b8c 89bf 1749 fcbe
00000030: da79 2b3f b741 433f 258f 5a3f f9fe 85bf
00000040: 4403 4a3f f78e 9f3f 4aeb 793f f0b7 6bbf
00000050: 6f0a 8cbf 44a2 45bf c274 92bf fb02 57bf
00000060: 7712 2ebf fed2 7fbf e24c 91bf d01f 3f3f
00000070: 83dc 4b3f 40f0 833f 0783 893f 4982 24bf
00000080: 8bd9 8d3f e685 00bf 2f3c 4cbf 748a c3be
00000090: 7055 40bf e1fb 53bf e8a9 4cbf 9fea 8e3f
000000a0: a2c6 46bf cc39 813f c79f 073f a29b 1bbf
000000b0: 34f1 193f edd1 63bf 2edc 1cbf 3e3d 5fbf
000000c0: e53c 37bf 2c61 06bf 8e79 5f3f ba46 953f
000000d0: eb02 823f 877a 33bf d217 3fbf 3d4e 22bf
000000e0: 9334 49bf 5905 fd3d 2613 353f 9366 a23f
000000f0: ba7d 88bf 9a2b 3abf e058 4dbf b2ff 20bf
00000100: 182a 3bbf 298a a83f ab1e 81bf bda3 543f
00000110: 52b7 5cbf b29c 38bf 9d1f 663f 8f54 36bf
00000120: a020 4b3f de96 363f 41a2 0c3f fd2a 76bf
00000130: cb57 78bf 8610 3bbf 455f 5c3f e7a1 583f
00000140: 82d4 4c3f df01 3ebf 02ef 733f 7111 a9bf
00000150: 4d70 543f 0478 533f 17b1 473f 4f46 a7bf
00000160: 3182 6a3f 0f48 593f 22ff 543f 4659 86bf
00000170: ac81 263f 887e 663f 5615 80bf 7de7 8c3f
00000180: 269d 0cbf 8f63 a3be 14ac f4be b1a6 0dbf
00000190: a6b0 22bf aea0 8f3f b645 24bf 6bf7 8f3f
000001a0: 2ef3 843f 768e 41bf 6039 72bf bc2e 853f
000001b0: 3714 45bf 74ac 2bbf 386f 26bf cdf5 4f3f
