models/checkpoint_epochs200.pt (torch, 93791 bytes, 4 tensors)

conv1.bias f4 [16]
0.10042361 0.05092013 0.07286233 0.13638048 0.068308614 0.09599078 0.092515364 0.15818556
0.09737708 0.108588755 0.10637219 0.10174026 0.13673167 0.04681905 0.12493773 0.18446772
00000000: e5aa cd3d a091 503d d838 953d 53a7 0b3e
00000010: 63e5 8b3d d096 c43d b278 bd3d 65fb 213e
00000020: a26d c73d c863 de3d aad9 d93d 335d d03d
00000030: 6303 0c3e 55c5 3f3d 5adf ff3d 1be5 3c3e

conv1.lin.weight f4 [16, 1433]
0.02225125 0.19526057 0.19788843 -0.20187765 0.89195794 -0.061894614 0.091474645 0.071779504
0.09750426 0.09802513 0.027021632 0.09414587 0.21259932 -0.07281385 0.17094265 -0.05084415
0.10892704 -0.0028495183 -0.005752386 0.08552551 -3.8134567e-07 -0.12922612 -0.0011546165 -0.056034133
-0.020630956 -0.24645069 -0.06660369 0.14735857 0.15597358 -0.03731558 -0.17283912 -0.007941064
-0.06420452 -0.002358041 -0.06692957 0.20631392 0.079597265 0.03644718 0.3908557 -0.048011735
0.099450186 0.13185805 0.07546486 0.033316053 0.18724899 -0.019583354 0.028813766 -0.13536422
0.014172124 0.00092928007 -0.13636164 0.6085639 -0.44076103 -0.004977453 -0.023300936 0.0839799
-0.14965959 0.13015924 0.15983574 -0.006946803 5.5913324e-07 0.74313366 -0.05125465 -0.21697478
-0.073469885 0.13575673 0.05550856 -0.05986644 0.010890591 -0.01006452 -0.15154868 -0.061268035
-0.037260443 -0.06383214 -0.049433336 -0.18954161 -0.19307059 0.2720573 0.2106343 -0.043035712
-0.084852844 -0.2622806 0.12372262 -0.037621196 0.010179968 -0.29867834 -0.15187508 0.07366906
-0.041827083 0.30372664 0.03156492 0.013933747 0.31974417 0.46964383 -0.09463417 0.11816493
-0.10732857 0.09296042 -0.22760461 1.2535505 0.06309177 -0.03353024 0.15152152 -0.15431419
0.05103194 0.008397026 -0.108715124 -0.054296147 -0.09733661 -0.08047571 -0.02193147 0.072314106
0.028189715 -0.0012032256 -0.010314268 0.078796975 0.001211623 -0.039707545 0.69730204 0.04970568
-0.13195346 -0.13741656 -0.33930895 -0.11148533 -0.011838002 -0.0363452 0.059640177 0.02761679
-0.14038476 -0.01987956 0.070708506 0.16175194 -0.05914101 -0.0741627 0.15516973 -0.37392482
-0.08022909 -0.023007818 0.025377827 0.01790649 0.99304736 0.027703838 0.021740807 -0.14703393
0.03580182 5.638815e-07 -0.14342713 -0.0171366 0.018316755 0.5422368 -0.14736502 0.19659792
0.08324203 0.1707274 0.116155356 -0.13660745 -0.14786898 0.12504438 0.03316096 0.058422398
-0.25839484 -0.12489758 0.005553042 0.062354602 0.033851866 -0.03000048 0.099854484 0.11304661
1.0519578 -0.023861231 0.04550556 0.0052489676 0.23985282 -0.14100091 0.017395947 0.00847938
-0.3103738 0.059043486 -0.029357025 -0.28317562 -0.0056595327 0.10219687 0.054677613 0.015166431
-0.020042744 -0.00014957052 -0.062310524 1.0316446 -0.20054847 0.035865467 0.060420256 0.15068716
0.21450786 -0.037844203 -0.14432831 -0.032955293 0.26746908 0.065262794 0.09994873 0.08367099
-0.05662031 -0.02379621 -0.09600288 0.10046607 0.026879014 -0.22136955 0.025727212 -0.0686257
0.15968353 0.04395609 0.10183776 -0.03859079 0.32958466 0.01391816 -0.284513 -0.026176814
-0.05418019 -0.31340617 -0.12761045 -0.08296973 -0.054373473 -0.0029585445 -0.050716616 -0.027634975
0.1269551 0.13777782 -0.010237005 0.008483448 -0.35869244 0.05046637 0.052213825 -0.07970901
-0.030704418 0.00073451875 0.079597026 0.048352275 0.061715163 -0.39963704 -0.37719464 -0.04388136
0.02726412 -0.02246739 0.077034436 -0.07091903 0.099788964 -0.14249964 0.021289133 0.028545715
0.041144356 0.13586071 0.45192114 0.020442959 -0.043774247 -0.08198795 0.119308926 -0.06658006
00000000: 4148 b63c 63f2 473e 44a3 4a3e 04b9 4ebe
00000010: 5b57 643f 3585 7dbd 0f57 bb3d 2201 933d
00000020: 50b0 c73d 66c1 c83d 785c dd3c 8dcf c03d
00000030: a3b3 593e 6e1f 95bd 970b 2f3e f541 50bd
00000040: 2415 df3d fcbe 3abb 837e bcbb 0028 af3d
00000050: c0bb ccb4 da53 04be 8056 97ba 0c84 65bd
00000060: 4002 a9bc 925d 7cbe 8467 88bd 2ae5 163e
00000070: 8ab7 1f3e 39d8 18bd bdfc 30be 3d1b 02bc
00000080: a97d 83bd 5d89 1abb 5f12 89bd f543 533e
00000090: e403 a33d a349 153d 3d1e c83e f4a7 44bd
000000a0: 8aac cb3d cc05 073e 528d 9a3d 6a76 083d
000000b0: 33be 3f3e 456d a0bc d90a ec3c eb9c 0abe
000000c0: 3232 683c ee9a 733a 63a2 0bbe d8ca 1b3f
000000d0: 6eab e1be e719 a3bb 9be1 bebc a7fd ab3d
000000e0: 5d40 19be 7748 053e fbab 233e 02a2 e3bb
000000f0: 5817 1635 023e 3e3f 65f0 51bd a32e 5ebe
00000100: 6177 96bd d003 0b3e f25c 633d 8336 75bd
00000110: 736e 323c a8e5 24bc 942f 1bbe 31f4 7abd
00000120: 689e 18bd 6dba 82bd 9c7a 4abd 3217 42be
00000130: 4cb4 45be 184b 8b3e 85b0 573e 3746 30bd
00000140: 54c7 adbd a549 86be 4962 fd3d af18 1abd
00000150: e1c9 263c 5eec 98be 2485 1bbe cedf 963d
00000160: e052 2bbd 0f82 9b3e 384a 013d 5f4a 643c
00000170: 82b5 a33e 2875 f03e 8fcf c1bd 7400 f23d
00000180: 15cf dbbd 0862 be3d 2f11 69be 5874 a03f
00000190: 4236 813d 0157 09bd 7528 1b3e 8a04 1ebe
000001a0: de06 513d ae93 093c 09a6 debd a365 5ebd
000001b0: 6b58 c7bd 73d0 a4bd a0a9 b3bc 6b19 943d
000001c0: 1eee e63c 8db5 9dba 2dfd 28bc 4f60 a13d
000001d0: 52cf 9e3a 61a4 22bd 6382 323f 2f98 4b3d
000001e0: cf1e 07be edb6 0cbe e7b9 adbe 6c52 e4bd
000001f0: 2ef4 41bc b4de 14bd 4249 743d 9b3c e23c
00000200: 06c1 0fbe 76da a2bc 9fcf 903d 4da2 253e
00000210: d83d 72bd 9de2 97bd d0e4 1e3e 1373 bfbe
00000220: 264f a4bd e47a bcbc 29e5 cf3c a2b0 923c
00000230: 5a38 7e3f 29f3 e23c c719 b23c 1090 16be
00000240: eea4 123d a45d 1735 90de 12be 0e62 8cbc
00000250: 050d 963c 08d0 0a3f dbe6 16be f750 493e
00000260: cc7a aa3d 2ad3 2e3e dce2 ed3d d3e2 0bbe
00000270: f76a 17be a20b 003e c9d3 073d 534c 6f3d
00000280: 544c 84be 4dca ffbd 4bf6 b53b 8a67 7f3d
00000290: 41a8 0a3d 91c3 f5bc 8280 cc3d fb84 e73d
000002a0: 8ea6 863f a178 c3bc 0a64 3a3d 88ff ab3b
000002b0: fa9b 753e 8b62 10be f281 8e3c 19ed 0a3c
000002c0: 51e9 9ebe 95d7 713d 257e f0bc 65fc 90be
000002d0: 9a73 b9bb 984c d13d a2f5 5f3d 9f7c 783c
000002e0: ae30 a4bc 08d6 1cb9 5239 7fbd ee0c 843f
000002f0: 945c 4dbe abe7 123d 3b7b 773d bc4d 1a3e
00000300: f3a7 5b3e 8602 1bbd cdca 13be 21fc 06bd
00000310: b5f1 883e 80a8 853d ebb1 cc3d b25b ab3d
00000320: b3ea 67bd 45f0 c2bc 289d c4bd 28c1 cd3d
00000330: 6131 dc3c b3ae 62be e0c1 d23c a28b 8cbd
00000340: 1484 233e 4d0b 343d 5190 d03d 6011 1ebd
00000350: 52bf a83e ff08 643c b0ab 91be c270 d6bc
00000360: 0cec 5dbd c676 a0be 50ac 02be 09ec a9bd
00000370: b8b6 5ebd 24e4 41bb 3abc 4fbd be62 e2bc
00000380: 8500 023e a115 0d3e 1cb9 27bc 29fe 0a3c
00000390: 89a6 b7be d3b5 4e3d 2ade 553d 7a3e a3bd
000003a0: d587 fbbc b88c 403a c403 a33d 090d 463d
000003b0: 0ac9 7c3d 3a9d ccbe a81f c1be f1bc 33bd
000003c0: 0159 df3c 880d b8bc 3bc4 9d3d ff3d 91bd
000003d0: 285e cc3d 6deb 11be 8c66 ae3c b4d8 e93c
000003e0: fc86 283d 121f 0b3e 3562 e73e fe77 a73c
000003f0: a04c 33bd 4ce9 a7bd 3d58 f43d 205b 88bd

conv2.bias f4 [7]
-0.31033728 -0.26878464 1.2354385 0.05934432 -0.40534487 -0.997466 0.9900262
00000000: 87e4 9ebe 249e 89be d922 9e3f 0813 733d
00000010: 5d89 cfbe ef59 7fbf 5b72 7d3f

conv2.lin.weight f4 [7, 16]
-1.9006737 1.6543242 -1.8181753 2.0192306 1.8353887 1.7072799 -1.5510559 1.303658
-0.63990235 -1.4582974 -1.6925408 -2.138822 1.6584772 1.8269975 1.5229303 -0.19185427
2.0343244 1.5370544 2.0758352 -1.6221266 -2.118971 0.11253185 -1.7280653 0.2755518
-2.1298044 -1.7461624 -1.6957449 1.8074702 1.7880566 1.840222 1.9769412 -1.8489412
1.9232912 -1.8070785 -1.555225 -1.7561018 -1.924413 -1.8772602 -1.7805997 1.6562774
-2.1040256 2.1211016 1.8805388 -1.8195769 1.568202 -1.7831267 -1.8536965 -2.0458434
-1.871781 -1.7824423 2.1284783 1.8113308 1.9457809 -2.0299962 1.1510851 -1.426087
-2.4413111 1.7108907 1.4856045 1.4710797 -1.880249 -1.5923187 -1.0426531 1.8193029
0.92368066 -1.6315551 -1.5842195 1.6411813 -2.0214546 -1.4463134 1.8734641 -1.6714717
1.8009137 1.29571 1.2106863 -1.7015066 1.4595479 -1.8780509 1.9437184 1.2553318
0.97350067 1.6579282 1.3698709 -1.4894202 1.7634513 1.8272457 1.6651201 -1.8135866
1.76131 1.1779735 1.3919326 1.2031248 -0.17265096 1.8769139 -1.668952 -1.9448161
-1.5878175 -1.684746 -1.6438086 -1.6408634 -1.8077654 1.8621447 -1.3967351 1.8335514
0.16440116 -1.5183336 -1.8403097 1.7029641 -1.8659627 -1.7865148 -1.6828157 1.722239
00000000: 4749 f3bf e5c0 d33f f8b9 e8bf 133b 0140
00000010: 04ee ea3f 2688 da3f 0089 c6bf 44de a63f
00000020: a4d0 23bf 7da9 babf 2da5 d8bf 76e2 08c0
00000030: fb48 d43f 0edb e93f 61ef c23f 7275 44be
00000040: 5f32 0240 33be c43f 7cda 0440 d8a1 cfbf
00000050: 399d 07c0 1977 e63d 3e31 ddbf 2015 8d3e
00000060: b74e 08c0 4082 dfbf 2b0e d9bf 2f5b e73f
00000070: 0adf e43f 658c eb3f 690c fd3f 1baa ecbf
00000080: 682e f63f 594e e7bf 9d11 c7bf f2c7 e0bf
00000090: 2a53 f6bf 104a f0bf b1ea e3bf e600 d43f
000000a0: 5ba8 06c0 21c0 0740 7fb5 f03f e5e7 e8bf
000000b0: d8ba c83f 7f3d e4bf ed45 edbf 19ef 02c0
000000c0: 8596 efbf 1227 e4bf fd38 0840 b0d9 e73f
000000d0: 590f f93f 75eb 01c0 c256 933f 058a b6bf
000000e0: 713e 1cc0 77fe da3f 4a28 be3f 574c bc3f
000000f0: 00ac f0bf 19d1 cbbf a875 85bf ebde e83f
00000100: 5676 6c3f ccd6 d0bf b4c7 cabf 3b12 d23f
00000110: 835f 01c0 cc20 b9bf accd ef3f c9f2 d5bf
00000120: 5784 e63f d3d9 a53f c5f7 9a3f f8ca d9bf
00000130: 77d2 ba3f f963 f0bf c4cb f83f b6ae a03f
00000140: 5737 793f fe36 d43f ee57 af3f 52a5 bebf
00000150: c6b8 e13f 30e3 e93f a822 d53f 9b23 e8bf
00000160: 9b72 e13f d6c7 963f d92a b23f feff 993f
00000170: 6acb 30be b73e f03f 38a0 d5bf bcef f8bf
00000180: 9b3d cbbf c2a5 d7bf 5268 d2bf d007 d2bf
00000190: db64 e7bf c25a ee3f 37c8 b2bf d0b1 ea3f
000001a0: c758 283e c158 c2bf 458f ebbf bafa d93f
000001b0: ded7 eebf 84ac e4bf 8166 d7bf 5472 dc3f
